model.pth (torch, 355740 bytes, 10 tensors)

conv1.weight f4 [12, 3, 5, 5]
00000000: a78b 863e caa5 bbbe e043 adbe f1c3 613e
00000010: 932c 6a3e 9cd7 ebbd f750 83be f641 2bbf
00000020: b9df c53e 4e7e 6f3e 7ca0 953d 1133 e83d
00000030: 8edd 413f bf78 17bf 369e dbbe 4ad5 9dbe
00000040: 222d 5d3e b365 c03e a152 45bd c07b 063c
00000050: 41d6 eb3d 6e41 a23e 0602 4cbe f1b3 d03e
00000060: eecd 9cbd 2259 4d3e aba5 a0be 0824 063e
00000070: 692a a73e 44cc c63b b0b0 c13c d95f 41be
00000080: f5b2 2fbe 3900 383d 1019 fd3e 5527 a6bd
00000090: 1615 293f 3e17 1c3f 410e 69bf 6096 30be
000000a0: 92fa 4c3e dbe7 723d aa6f 0a3c b2a2 93be
000000b0: 6bf9 01bf 20bb c0bd a198 2abe 87a1 bcbe
000000c0: 7909 fa3c 3054 56bd 6855 a03c 2fc7 7a3c
000000d0: b649 03bf fd98 4d3e 3384 82bd e45f 503e
000000e0: 3523 93be 0e66 8abe e186 693e 5e40 353e
000000f0: 3d89 cabe 4848 053f 2dca e33e ce63 0ebf
00000100: 6e57 94bd 0a65 93be f477 1fbd 601b 0d3f
00000110: c93a cb3d 8b1c c83b ce41 9d3e 1b18 a0be
00000120: 383b eebe 9778 103f 90b1 363e dd75 70bd
00000130: 1991 aa3d 2896 183e f3fa 80be 5bb1 7b3d
00000140: 020a 3abe 0b03 9bbd 4e44 3abe 84ef 37be
00000150: 9377 3cbe 2084 d4bd 324c cbbe 0adc 78bd
00000160: 8f4d 23be a88a babe 08b3 20be 7ee8 69be
00000170: 6a74 50be f233 16be 920d 843d 2a70 1c3e
00000180: adeb b33c 3fb2 083d 743b a5bd e63d 4cbe
00000190: e86a 08be 6477 01be 4bb1 41be 710b d43c
000001a0: 26af 383d 6686 bd3e bcd6 7b3e dff0 183e
000001b0: 2fa7 13be 9363 323e 9c3b 74be 8088 423d
000001c0: c5d0 cf3b edf6 6f3d 1f69 5e3e 4bce 07be
000001d0: faa0 dc3d b49f 7ebd b89c bd3d d8db 1abd
000001e0: c304 65be c501 12bc 290a 353d 7225 f8bd
000001f0: af0f 2bbe 2b20 323e a4ce 25be cdef d5bd
00000200: 1021 e23c 03bc 16be 5c4d 443e e745 18bc
00000210: 75fe a43d 3867 4c3e 62f9 5d3e a4ec 9e3c
00000220: e214 f73e 7996 3f3e 5898 b93e 744e c73c
00000230: 0652 713e 8179 403e 5017 f23d 647b 063e
00000240: 0e66 9e3e 5436 62bd f583 ec3d 82a2 c33d
00000250: ec03 433e 38e9 083e 904b 3dbe 2ab2 3fbd
00000260: 7b6f 41bd 2cf6 20be bb39 df3c c1f0 06be
00000270: b969 aebe d9a6 9bbe 6168 a63c 7348 95be
00000280: d1bc 513a c774 75be 5f6c 53be 666c 9cbe
00000290: f151 a9bd 17fc ca3e 57ab 8f3e 3d62 dc3e
000002a0: 92b9 5b3e 9462 973d 88e2 693d 9d96 563e
000002b0: 061e c13d d537 4c3e cde7 4d3e 5176 b5bd
000002c0: 25f7 f8bd 816e c0bd fa1b aa3d 76ab 09bd
000002d0: 5141 98be 670f 6abe aa81 92bd 101d 97be
000002e0: e35d 073e a77c c33d 9571 263d 7561 0f3d
000002f0: 95f9 aa3d f092 1fbe 571f ac3d 4b3c 853e
00000300: 3c2d 793d d324 483e 3d8e fdbd adf5 123c
00000310: 1338 ba3d 7b1f 5bbd 64ec 013e de4f 883e
00000320: 89b1 5fbc bb0a 923e 4322 c53d b732 88bb
00000330: e0a5 413d c7e2 61bc 56a0 05be d4dc 123e
00000340: dc71 9e3d c41e d5bd 20bf 673e 4876 12be
00000350: 1a9c d0be 4a5e aabe 7a8c bd3d 2b77 8d3b
00000360: d029 813d 1cf6 a93d a039 aabd fb49 c0bd
00000370: b898 4a3c 46e0 773c 9981 733e 7722 0b3e
00000380: 0ebd d0bd 268d 6d3e 5d3b df3d 64f0 903d
00000390: 50d3 5b3e 4dbc 0e3f ea62 83be e02f 8f3d
000003a0: f45f b5bd 5147 27be 3a77 493e a254 e5bb
000003b0: 4153 11be ca9c 9fbd 622a 443e dfd5 343e
000003c0: 3b7d 31bd 2d16 a3be 9343 9fbe 5fb7 53be
000003d0: ce2b a0bd 30a3 75be 1172 babe 1fa5 e2bd
000003e0: f60e fcbd b2e8 483e 4a37 72be 7004 c5bd
000003f0: 8fa5 62be ab9f 02be 6992 dd3d ff41 8cbe
0.2627842 -0.36649925 -0.33840847 0.22047402 0.22868566 -0.115157336 -0.2564771 -0.66897523
0.3864725 0.23388025 0.073060006 0.11337865 0.7572869 -0.5916862 -0.42894143 -0.3082679
0.21599248 0.3757759 -0.048174504 0.008208215 0.11515475 0.31690544 -0.19922647 0.40762284
-0.076564655 0.20053533 -0.31376395 0.13099682 0.32649544 0.006066831 0.023643821 -0.18884219
-0.1715811 0.044922087 0.49433184 -0.08112971 0.660478 0.60972965 -0.91037375 -0.17244864
0.2001746 0.059303146 0.008449474 -0.28835064 -0.50771207 -0.09410691 -0.16659786 -0.36841986
0.030522095 -0.05232638 0.019571975 0.015306278 -0.5128435 0.20077892 -0.06372871 0.2034908
-0.28737798 -0.27030987 0.22805358 0.17700335 -0.3955783 0.5206342 0.44490185 -0.5562104
-0.072432384 -0.28788024 -0.038932756 0.55119896 0.09923322 0.006106918 0.30714267 -0.3126839
-0.46529555 0.56434005 0.17841172 -0.058706153 0.083284564 0.1490103 -0.2519146 0.061448436
-0.1816788 -0.0756894 -0.18190119 -0.17962462 -0.18404989 -0.10376763 -0.3970657 -0.06075672
-0.15947555 -0.3643391 -0.15693295 -0.22842595 -0.20356908 -0.14668253 0.06447901 0.15277162
0.021962965 0.033373114 -0.080679804 -0.19945487 -0.13322031 -0.126432 -0.18915288 0.025884362
0.04508891 0.370166 0.24593633 0.14935635 -0.14419244 0.17420797 -0.23850864 0.047493458
0.006342026 0.058585096 0.21719788 -0.13262288 0.10772891 -0.062164024 0.09258407 -0.037807316
-0.22365098 -0.008911555 0.044199143 -0.12116517 -0.16705202 0.17395084 -0.16192108 -0.10446129
0.027603656 -0.14720158 0.19170135 -0.00929401 0.08056346 0.1996125 0.21677163 0.019399948
0.4825812 0.18709745 0.36249042 0.024329402 0.23566446 0.1879635 0.11820853 0.13133007
0.30937237 -0.055227593 0.11548606 0.0955248 0.19044465 0.13370216 -0.18485856 -0.04680077
-0.047225457 -0.15718907 0.027249208 -0.13177778 -0.34065035 -0.30400732 0.020313444 -0.29156837
0.0008000853 -0.23970328 -0.20646809 -0.3055145 -0.08267582 0.39645454 0.2806041 0.430437
0.21457508 0.07391849 0.057100803 0.20955892 0.09429555 0.19943173 0.20107956 -0.08860458
-0.12156514 -0.09396077 0.08306117 -0.033610784 -0.29737332 -0.22857438 -0.07153638 -0.2951436
0.13219409 0.0954526 0.040635664 0.03500505 0.08348385 -0.15583396 0.08404415 0.26022562
0.060834154 0.19545297 -0.123806454 0.0089697065 0.090927266 -0.05349682 0.12687832 0.26623434
-0.0136531675 0.28523812 0.096256755 -0.0041564363 0.04727733 -0.013786978 -0.13049445 0.14342052
0.07736561 -0.10406259 0.22631502 -0.14302933 -0.40744096 -0.33275062 0.092553094 0.0043171844
0.06306803 0.08298895 -0.08311772 -0.09389111 0.012365513 0.015129155 0.23779906 0.13587366
-0.10192309 0.23198375 0.108999945 0.07077101 0.21467328 0.55756074 -0.25661403 0.06991553
-0.08856192 -0.16335799 0.19674388 -0.0069986144 -0.14191915 -0.07793577 0.19156793 0.1765971
-0.04333232 -0.31852856 -0.31106243 -0.2067542 -0.07820855 -0.23988032 -0.3641515 -0.110666506
-0.12307541 0.19620016 -0.23653904 -0.09619987 -0.22133468 -0.12756221 0.10818941 -0.273941

conv1.bias f4 [12]
00000000: 760b d3bd 8b6c 1a3f 79ce 34be cd87 cebe
00000010: e472 b5be e20f a7bd 8b4b a6be 2a35 8a3d
00000020: 5bb0 a0bd f451 11be 21f1 ed3d d4e7 29be
-0.103049204 0.60321873 -0.17656888 -0.40337983 -0.35439217 -0.08157326 -0.3247951 0.067484215
-0.07846137 -0.14191419 0.11618257 -0.16592342

conv2.weight f4 [24, 12, 5, 5]
00000000: 407c 54bd ab3f 84bd c202 2fbd 9fc1 9fbd
00000010: 0800 0bbd 13bf 9bbb 00b8 723d 0f8b 523d
00000020: fb38 403d 4326 8e3d 6aff 31bd 2c46 963c
00000030: 9552 85bd 5381 f53d dff4 45bd f717 01bc
00000040: 79f3 703c 49b7 543c aca6 a0bd 6880 0ebc
00000050: 7a1b 3fbc efab 78bd 68e7 7a3d 36a4 44bd
00000060: 95c5 2a3d d7d9 6dbd a78d 9abc b325 123c
00000070: 3c09 05be 75d3 e1bd c5b2 b83d 0e36 58bc
00000080: f663 4cbd 5667 70be da13 07be 69d8 933d
00000090: a8c4 623d 4117 bbbd 0b89 8fbd 3670 7ebe
000000a0: 9c6f 373e 287d e13d cc01 15be e7ea 21be
000000b0: 1a39 14be ceee 513e 7e13 b139 5831 30bd
000000c0: aeae 003c 8c36 a8bd e324 39bd 6f83 c2b5
000000d0: 5630 9bbd 310b 863d 2676 e43d e17e f03b
000000e0: 6005 81bd 5958 eabd c8cb ac3d 2748 64bc
000000f0: 0d95 1bbe b852 9ebd ba34 52be b672 66bc
00000100: cb8a e6bd 2b30 16bd 7e9e d9bd fa40 4dbe
00000110: 9f5e 8a3d 57be da3d 816e debd dd6e 953c
00000120: dcbf 79bc 5bbc 45bd f327 7dbd f5a5 ab3d
00000130: 901b d73d 4c14 9c3d af6d e53d 642f 263d
00000140: f7d4 793c d382 3a3d c31f 8b3d ae24 93bd
00000150: 80bb 56bc b410 033d 97d0 0c3d ef90 a13d
00000160: a229 1cbc 32b0 913d 2714 fe3a 0185 bd3b
00000170: 031f 3d3d 8d2d c73c 04a6 14be 56cc a03d
00000180: 68e8 393e c465 eb3b d480 edbc 92df 0abd
00000190: 28d4 603d d817 94bb 2c3d 8a3b 44c9 8ebb
000001a0: 2552 d33b f353 523e 9f6e 9e3d 76b0 37bc
000001b0: 9319 4f3d 56f8 893d e9c7 df3a b986 03be
000001c0: c286 d1bb 7814 9ebd 7d72 b6bd ebff 7fbc
000001d0: ff8f 9dbd c192 4bbe bdb2 81be 9f4e 33be
000001e0: e2a8 a03d 9f06 3fbe 5974 9cbd f6e2 c6bd
000001f0: 5cfb 373c a4b6 253e 4548 1d3d f3ff 793d
00000200: 7348 c9b9 108a 7dbd a1ac 053d 72a6 c53d
00000210: 6f83 06be f834 bb3d 5126 d43d 7590 cf3c
00000220: ac4e 583c 9b7c 843d 7776 4cbe 938c bc3d
00000230: 605d d43d 6f19 2d3d 1004 933c adb0 f23d
00000240: 4344 a6bd 3a6d 9a3d 2058 dbbb 844e c83d
00000250: d3d0 d03d c49c 353e a7ba 40be 0c86 9dbc
00000260: e82d 08be 2042 c83c f4c8 b3bd 19e7 473d
00000270: 88b1 293d b46f 083e 07f8 3f3e fc3e 5a3e
00000280: 396c 28be b333 d9bd 8df0 46bd 5128 8ebc
00000290: 7082 adbd e21f d3bb 4d3c 13be b4fa 4fbe
000002a0: 4252 f33c 7d0b 35bd bb8c 133d 2678 4d3d
000002b0: e46d 023d 2b6b bc3d 9424 8e3d 2970 2e3e
000002c0: e09a 083e 94fb 17be f86b 1dbe 1b6b 63be
000002d0: 6176 56bd a87c eebd 32f1 20be 54c5 25be
000002e0: 8ebd 80be 5222 2f3e b78a 8abe 7a85 53be
000002f0: 2ea4 25be 867f 27be 2584 0f3d 977f 42be
00000300: cc20 dabd 962a 70be 0f6c 0dbe 8484 b93d
00000310: 757c 753d 8a45 103d b9e2 8bbd aad9 c73c
00000320: f87d 43bd 6db7 c8bc 5b2b 3c3c 480b 34bd
00000330: 284c 013d 3973 213d 5377 c83c f23b 76be
00000340: 0db7 1ebd f6fd 07be 2634 59bd 3fbc acbc
00000350: 1556 95bc e2f4 d2bc a2e2 2c3c c33b 9dbd
00000360: e93d 04be cb5b 3c3d 4041 d4bd fd85 97bc
00000370: 9865 dbbd fea1 eb3c 4185 e03d 1607 d53b
00000380: 592a 923d 23f5 7b3d a3f5 053e 9ff3 223e
00000390: 7e60 2b3e 3595 3a3e 04ba 063e 7404 993d
000003a0: 3d76 e73d 1919 783d 1164 313e 0630 ab3d
000003b0: 28a2 2d3d 05c5 45bc 7df7 803d 10c6 d43b
000003c0: a561 943d 4cd0 883d 6938 de3d 0f80 73bd
000003d0: f424 cf3d cc0f 363e ed41 443d 76b4 6d3d
000003e0: d71c 043e 61c4 053d 75b8 03be 06dc be3b
000003f0: e3c6 f5bb 1d37 6e3d 77ae f9bd 429f b53c
-0.051876307 -0.06457456 -0.04272724 -0.07800602 -0.033935577 -0.0047530024 0.059257507 0.051402148
0.04692934 0.069408916 -0.043456472 0.018344007 -0.06509892 0.11987557 -0.04832923 -0.007879249
0.014706486 0.012983152 -0.0784429 -0.008697607 -0.011664266 -0.060710844 0.061255842 -0.048008166
0.041692335 -0.058069076 -0.018866373 0.008920121 -0.12991804 -0.1102666 0.090184726 -0.013196481
-0.049900018 -0.2347692 -0.13191167 0.07219011 0.055363327 -0.09135295 -0.07008561 -0.24847493
0.1791367 0.110102 -0.14551467 -0.15812264 -0.14474908 0.20501253 0.00033774594 -0.043015808
0.007854147 -0.08213529 -0.045201194 -1.4492379e-06 -0.07577579 0.06545103 0.111553475 0.007339344
-0.06299853 -0.11442632 0.08437306 -0.013933218 -0.15193577 -0.07730621 -0.20527926 -0.014065435
-0.112569414 -0.03666703 -0.10625933 -0.20044318 0.06756329 0.10680836 -0.10860921 0.01824134
-0.015243497 -0.048275333 -0.061805677 0.08381263 0.10503304 0.07621059 0.11202561 0.04057254
0.015248529 0.04553492 0.067931674 -0.071847305 -0.013106227 0.03199835 0.034378614 0.07888972
-0.00953141 0.07113685 0.0019384668 0.0057836776 0.046172153 0.024313712 -0.14516455 0.07851474
0.18155062 0.0071837623 -0.028992094 -0.03390462 0.054889828 -0.004519444 0.004218718 -0.004357489
0.0064490014 0.20539837 0.07735943 -0.011211505 0.0505615 0.067368194 0.0017073128 -0.12844361
-0.006394238 -0.07718748 -0.08908556 -0.01562498 -0.07693481 -0.19880201 -0.2533168 -0.1751046
0.07844712 -0.1865487 -0.07639379 -0.09711258 0.011229362 0.16182953 0.038399 0.061035108
-0.00038391686 -0.061899245 0.032635335 0.096508875 -0.13136075 0.09140962 0.10358871 0.025337437
0.013202351 0.06469079 -0.19967066 0.092065 0.10369372 0.042260583 0.017946273 0.118501045
-0.08118489 0.075403646 -0.006693855 0.09780601 0.1019608 0.17735583 -0.18821202 -0.019228958
-0.13298762 0.024445593 -0.08778563 0.048804376 0.041429073 0.13323861 0.18746959 0.21313089
-0.16447534 -0.10605564 -0.04856925 -0.017353209 -0.084721446 -0.0064430097 -0.14378472 -0.2031048
0.02970231 -0.04420041 0.036022883 0.05016341 0.03184308 0.09200128 0.069405705 0.17034973
0.1334033 -0.14842063 -0.15373218 -0.22208826 -0.05235899 -0.1164487 -0.15717009 -0.16188556
-0.2514462 0.17102936 -0.27058956 -0.20656386 -0.16175911 -0.1635724 0.035038132 -0.18993984
-0.10650787 -0.23453745 -0.13810752 0.090584785 0.059933145 0.035222568 -0.06830353 0.024395783
-0.047727555 -0.024501527 0.011484946 -0.04395607 0.03156677 0.039416526 0.02447096 -0.24046305
-0.03874879 -0.13280472 -0.05302825 -0.021085856 -0.018229524 -0.025751535 0.01055208 -0.07677414
-0.12914242 0.045985978 -0.10364008 -0.018496508 -0.10712737 0.028763767 0.10962916 0.006501089
0.071369834 0.061513077 0.13081984 0.15913247 0.16736028 0.1822098 0.13156897 0.074715525
0.11301849 0.06057081 0.17323329 0.08358769 0.042390972 -0.012070899 0.06297205 0.0064933375
0.07245187 0.066803545 0.10850603 -0.059448298 0.1011447 0.17779464 0.047914434 0.05803343
0.12901627 0.032657985 -0.12863334 0.0058245687 -0.007500516 0.05815803 -0.1219148 0.022170667

conv2.bias f4 [24]
00000000: 9746 3f3f d8c6 66be 185a b13d ccaf 813f
00000010: 2eb9 e23d db34 e83d b326 e53e c1c6 43be
00000020: b8f3 803e a701 01bf b0d6 333e ddfc e03d
00000030: d4ca 093e 2b29 db3e 30eb 623e 57ae c43e
00000040: ab3e 34be faa1 3dbe 7d2d c73c 32c4 b7be
00000050: 3ad1 1dbe dced 243f 884d aebe 159f ea3c
0.74717087 -0.2253679 0.08659762 1.0131774 0.110704765 0.113382064 0.44756088 -0.19118787
0.25185943 -0.50393146 0.17562366 0.1098573 0.13456279 0.42804846 0.2216003 0.3841426
-0.17602031 -0.1851882 0.024313683 -0.35891873 -0.15411845 0.64425445 -0.34043527 0.02864031

Linear1.weight f4 [120, 600]
00000000: 6eb6 46bc 91c2 6fbd bc97 243d ebec 4d3c
00000010: 7869 07bd b38f 7cbd da05 b9bb b286 60bb
00000020: 25a2 2f3c e7b5 88bd 8000 343c 6a89 3abd
00000030: ce36 323d 2e92 403d d4ff f13a a023 4bbd
00000040: a190 cabc b2a8 f73d fc1b 0dbd d8f3 62bd
00000050: a865 61bd 5c4b 453c c85a f63c f68d 063d
00000060: c22b ccbc b28c ddbc d124 a83b 0a7d 74bd
00000070: 23b1 d63c 8340 15be 83e9 1bbc 353f 0d3c
00000080: 491f 3c3d d6bc cf3d 0f5f 433d 8ec0 6c3d
00000090: 3add a83c 16fe 213d 6f39 b33d 02dc 52bc
000000a0: 4981 b93c 7db7 5dbd 8965 4abd a5c4 693d
000000b0: 78be 2c3d 0088 853d efa9 813d 1291 e0bc
000000c0: 8d97 d63d 42ea 5fbb 994e d13c 4256 023d
000000d0: 1d7a cebc 90fe 893c 591f 12bd 57d0 303d
000000e0: 4214 033e e0aa d13a 9d4a 8cbd 317d 34bd
000000f0: e806 723d 5763 f23a aa06 7b3d 1639 91bd
00000100: 6c5b 103e 504b 81bd 5988 3f3d d1e4 4fbc
00000110: 07d8 b83c b3b8 81bd a0dd a63d eb5e dabc
00000120: 4ade d4bc 47a8 8ebd 244c 3d3d 4973 8bbd
00000130: a294 d73b ad30 da3d c89e f13c 08d0 093c
00000140: f64c 1b3c be0f 70bd 1a5e fc3b bb87 173d
00000150: ee05 503c 6ecf 003d d535 a9bd c17f 383c
00000160: b397 19be d538 a8bd c84b 1b3c d51b 87bd
00000170: c8da d6bd 88ad 2e3d 68cc 243d d19f 8ebd
00000180: c87c 9dbd c0c0 8abd 17b3 acbd 0a61 4e3c
00000190: 0396 b63d 2058 da3c b5cf 15bc f061 8bbc
000001a0: 7363 50bd 5a46 a0ba 6c46 1abd 2a17 843a
000001b0: 5a75 23bd d2ad 893c a7e8 9f3a a833 07bb
000001c0: e61f 32bc 0b8d 02bd 6069 bebd be2f 1f3c
000001d0: 29c1 1cbb 7b10 bebc 254d 0d3e 7573 59bd
000001e0: 1073 c03c 36bc bd3d e17a d9bd acb2 043d
000001f0: aefa 0f3c 0c70 f4bc d328 aabc f2c2 483b
00000200: 134a e23c 2c65 063d cc64 863d 4524 82bc
00000210: 3130 7e3d b969 7aba 9ebb 5cbc 9ac0 2a3d
00000220: 9de0 a83c b458 233c d5b1 b03c b779 c8bc
00000230: 6592 4e3c 5653 a53d aa88 653d a8dc e43c
00000240: 1cbd f33c f2ed 6c3c a909 533c d62e 893d
00000250: 1d63 463c c892 d3bd fc70 b23d e797 0a3c
00000260: 9ad7 b2bd 9e29 2f3d 9f60 7b3d 02b3 fb3c
00000270: 80d0 c23d eb13 9e3d 55c8 9e3b ac3e 1b3d
00000280: ac9f 133e cbe7 593d 0453 5f3d b81c c43c
00000290: ca3b 10bd 2ef3 1cbc c2cd 803d bafa e93d
000002a0: 4380 a93d 03a6 8a3d 82fc 073d bd78 66bd
000002b0: 3d43 b4bd d194 f43d 1124 f93c cd43 9a3c
000002c0: 03c7 a6bd ced5 9b3d b634 3ebc 93e8 473d
000002d0: 3aa4 cebd b0fe aebd 1081 2a3c 1ded 90bd
000002e0: 6197 2d3b 4799 12bd 1541 b03c 5f30 863d
000002f0: bd73 fc3b c650 a7bc 9c47 eb3c 1aa1 e83c
00000300: f1f3 9f3b 9a02 0bbd 8eac d9bd 47e2 d73d
00000310: 01b8 94bc e202 e03c ae45 573d f204 85bd
00000320: 6610 0a3c f0d8 26bd e128 a6bc b04f 35bd
00000330: 902e d3bb c0c7 1dbd d0fd 123d 9991 283d
00000340: d14d 94bb 4069 fdbc aee0 edba 894b 5cbd
00000350: 6007 b3bc b7c3 bbbd c76b 553c 0620 ea3c
00000360: 6f84 81bd 0821 92bd 9124 cb3c e108 1a3d
00000370: ebbf 413d 45d2 43bd 4562 923d d0c6 dabb
00000380: b462 413d d4a5 e6bd 3422 81bb a9ea febb
00000390: c357 cebd 7b25 a3bd d88b 77bd 96ab a7bd
000003a0: 7fba 82bd bdb1 bb3d 366c bdbd 7e2a 173b
000003b0: b2f6 65bd 7b07 8abc 4d31 6a3d 6d19 db3a
000003c0: beee 783c 00f0 debc 1d95 be3c 1c27 183d
000003d0: 88b0 4abd 4d29 45bd 585a 4c3d 0b58 edba
000003e0: 1627 fd3d 292d 0f3d 2d8e 55bd 5ac3 aa3d
000003f0: 28fb 93bd 7200 6e3d 5bed e3bd fa6c 05bd
-0.012128456 -0.058535162 0.040183768 0.012568693 -0.033059567 -0.06166048 -0.0056464495 -0.0034259972
0.010719811 -0.0667532 0.010986447 -0.045541205 0.043509297 0.047014408 0.0018463084 -0.04959452
-0.024727168 0.12092723 -0.034450516 -0.05540833 -0.055028588 0.012041893 0.030072585 0.03285023
-0.02492321 -0.027044628 0.005131342 -0.05968956 0.026207512 -0.1457539 -0.009516123 0.008621027
0.045928273 0.101434395 0.047698077 0.057800822 0.020613302 0.039548956 0.08751189 -0.012869837
0.022644656 -0.054130066 -0.049413238 0.0570723 0.042173833 0.065200806 0.063312404 -0.027412925
0.10478125 -0.0034166728 0.025550174 0.031820543 -0.025204713 0.016845018 -0.035674427 0.04316744
0.12800696 0.0015996359 -0.06850169 -0.044064704 0.059088618 0.001849274 0.061285652 -0.070909664
0.14097375 -0.06313193 0.04676089 -0.012688831 0.022563947 -0.06334057 0.0814774 -0.026656589
-0.025984902 -0.0696569 0.04621519 -0.06809098 0.0065789977 0.106538154 0.029494658 0.008411415
0.009478798 -0.058608763 0.0077016475 0.036994677 0.012696726 0.03144782 -0.08262221 0.011260928
-0.14999275 -0.08213965 0.009478517 -0.065971054 -0.10490948 0.04264596 0.040234 -0.06964076
-0.07689816 -0.067750454 -0.08432596 0.012596378 0.08915331 0.02665335 -0.0091437595 -0.017014474
-0.050876092 -0.0012227998 -0.037664816 0.0010077704 -0.039906837 0.016806517 0.0012200073 -0.0020630155
-0.010871863 -0.03187279 -0.092974424 0.0097159725 -0.0023918843 -0.023201218 0.1379896 -0.053088624
0.023492366 0.09264414 -0.106191404 0.032396957 0.008787794 -0.029838584 -0.02077142 0.0030633775
0.027623212 0.03281133 0.06562194 -0.015886435 0.062057678 -0.0009552497 -0.013472466 0.041687585
0.020614916 0.009969879 0.021569172 -0.0244721 0.012608145 0.08072536 0.056038536 0.027937248
0.02975326 0.014461027 0.012880721 0.06698386 0.012108591 -0.10330731 0.08712956 0.008459068
-0.08732529 0.0427643 0.061371442 0.030725006 0.095124245 0.07718643 0.004845659 0.037901565
0.14416379 0.05319957 0.05452253 0.023939475 -0.03521327 -0.009579463 0.06289245 0.114247754
0.08276417 0.067699455 0.033199795 -0.05626749 -0.08801887 0.11942447 0.030412706 0.018831158
-0.08143427 0.076091394 -0.011609247 0.048805784 -0.100899175 -0.085446715 0.010406747 -0.07076476
0.0026487934 -0.035790708 0.021515409 0.06552195 0.0077042268 -0.020424258 0.02872067 0.028397132
0.004881375 -0.033938028 -0.10628615 0.10541206 -0.018154146 0.027345125 0.052556686 -0.06495084
0.008426761 -0.04073423 -0.020283164 -0.04426545 -0.0064447597 -0.038520575 0.035886586 0.041154478
-0.004525878 -0.030933976 -0.0018148625 -0.053782973 -0.021854103 -0.09168189 0.013026184 0.028579723
-0.06324088 -0.071352065 0.02479771 0.037606124 0.047302168 -0.04780795 0.0714765 -0.0066765323
0.04721327 -0.11262098 -0.003940845 -0.0077794385 -0.10075333 -0.07966133 -0.0604361 -0.08187024
-0.063832276 0.0916476 -0.09249155 0.0023066099 -0.05614347 -0.01684927 0.057175923 0.0016715951
0.015193639 -0.02721405 0.023264462 0.037146673 -0.04948476 -0.04813509 0.049890846 -0.0018107904
0.12360971 0.034955177 -0.052137543 0.083380416 -0.07225639 0.058105893 -0.11129256 -0.03257463

Linear1.bias f4 [120]
00000000: a00e 003d ebff f83d 04d5 c53c 67c6 9b3d
00000010: cb6d 933d 469c 19bd 9c85 963d 3a83 ca3b
00000020: 6c87 5d3c 2e7a 2cbd 2c42 993b 8c09 ccbd
00000030: 9eee 213c 39b1 cdb8 1af8 e23c 53aa e3bb
00000040: ba08 0a3b 29f0 e4bc 327e 113e 3ba1 a6bc
00000050: c8a2 bcbc 0ec1 8cbc 4564 ca3d 3408 bd3c
00000060: f354 8cbc 5f85 bc3b edb1 973a a8c2 28bc
00000070: c7e0 623e db6e f83b 764f 1a3e 9e9d 03bd
00000080: e1ed e5bc 4c5a 1ebd 3228 fa3d b9a7 4e3d
00000090: 2a8f 1b3e 55c3 df3c c48a 86bd fad9 2f3d
000000a0: 6261 853d 328f 86bc 8213 abbd ddd7 ba3c
000000b0: d3a9 013d 2c11 00bd b55b 2cbd d207 96bd
000000c0: dcb0 343e e5d1 a5bd c601 433d f3da 853d
000000d0: fe3e 333d c9f0 f2bc 13b9 b73d 2eec 0bbc
000000e0: d9c6 2fbd 725d f9ba 751e 163d 24bc d0bc
000000f0: 6509 953d 9b4c 893d d0aa 703c 8916 f0bc
00000100: f83f 19ba 555f 33bd 4577 0f3e f514 aabd
00000110: e888 89bc 0195 8b3d b378 e73c c3d3 7d3d
00000120: b5d0 cc3d 7ced 02be c65e 2bbd e9d2 063d
00000130: b8b2 4abc 103d 653d e83d fc3c af37 c6bc
00000140: 60df bdbc 8306 6c3c 0fd0 23bc 9350 843d
00000150: 18da c8bd 30ba 053d 19bb c1ba d820 023c
00000160: 9f48 11bd 5867 383c 44c8 1b3e 5f86 473d
00000170: 2476 16bd dc47 1b3b 9719 953c 35d4 9f3d
00000180: 340b 123d 0399 873c 4d3a 4c3d 9832 a3ba
00000190: d96a 03be b50e 9dbb b0b6 6fbc 1b7b 14bd
000001a0: 1494 213a 94fd bd3d 5e1b 8f3d b536 c53d
000001b0: c237 433d 50ba 16bc 965d 45bd fdf8 fc3d
000001c0: a017 653c 9836 503e ce15 cbbc 8e86 1e3e
000001d0: 8f20 853c ce8e 8bbc 317e b93c 5368 d83d
0.031263947 0.121581875 0.024149425 0.076062016 0.07198676 -0.03750255 0.07349703 0.006180194
0.013521057 -0.042108707 0.0046770778 -0.099627584 0.009883551 -9.808172e-05 0.027706195 -0.0069477945
0.002106233 -0.027946549 0.14208296 -0.020340553 -0.023026839 -0.0171819 0.09882406 0.0230752
-0.01713035 0.0057532038 0.0011573412 -0.010300316 0.22156058 0.0075815744 0.15069374 -0.032132737
-0.028067531 -0.038660333 0.12214698 0.05045292 0.15191332 0.027314821 -0.06569436 0.042932488
0.06512715 -0.016425703 -0.0835333 0.02280801 0.031656098 -0.031266376 -0.042079646 -0.0732571
0.17645591 -0.08096675 0.047609113 0.06535902 0.043761246 -0.029655831 0.08970847 -0.008540196
-0.042914245 -0.0019025041 0.03665014 -0.025480337 0.072771825 0.067040645 0.014689162 -0.02930762
-0.0005846019 -0.043792088 0.14010341 -0.083047785 -0.016788915 0.068155296 0.028255796 0.06196953
0.10000745 -0.12785906 -0.04183843 0.032915983 -0.012371711 0.055966437 0.030791238 -0.024196474
-0.023177803 0.014405849 -0.0099983355 0.06460681 -0.09807223 0.032648265 -0.0014780491 0.007942401
-0.035469647 0.011255108 0.15213114 0.04871213 -0.03673376 0.0023693955 0.018200679 0.07804147
0.035655215 0.016552454 0.049860287 -0.0012450991 -0.12833728 -0.004793013 -0.014630958 -0.036250215
0.0006163728 0.09276882 0.06987642 0.09629575 0.047660597 -0.009199694 -0.048184954 0.12352178
0.013982683 0.20333326 -0.02479067 0.15481016 0.016250877 -0.017035868 0.02264318 0.10566773

Linear2.weight f4 [60, 120]
00000000: e7ed 733e 388b c9bb 15f7 253d 10fd da3c
00000010: ca33 3d3e 63b6 28be 1681 b8bd b278 a53d
00000020: d43c 813d 0c46 dfbc a76b 033e 292a a13d
00000030: 959c 3a3c 9f2a 213d 479f 40be 0430 6cbd
00000040: cbae 30bd 2232 703c c39c debd d344 573b
00000050: 90ed 393e 7207 313e bca2 9dbd ab0f 893e
00000060: 7e26 1f3e b4a5 083e 2e1b d33e b073 1b3e
00000070: c3ea bc3d 9cd2 003d 5b3d e73d eadb a2bd
00000080: fac7 20be 437b a83d 1e7e dd3c 3553 7d3e
00000090: dffa 3ebd baa8 433e 4c63 81bd 4f6f 1fbe
000000a0: 5f53 433d 98cf 1bbe 8066 95bd 01ae e8ba
000000b0: c0e4 0fbd f693 293e f46b 76bd d8dd 053e
000000c0: 73dd 133e 4756 2b3d 2718 dd3c ebbc 473e
000000d0: d057 b4bd e90e 4abe b51c eb3d 0a0f 63be
000000e0: 74bd eb3b 76c4 0a3d f00e 893d a04d 803b
000000f0: 99d3 f93d b450 8d3d 947c 82bc 94c5 9e3d
00000100: b99e c9bd d0e2 523d 57bf 8d3c 8904 e0bd
00000110: 54cf bf3d 011e 8ebd 7d66 db3d dddd 553d
00000120: f04c bdbd 8a32 3cbd 0ec8 adbb dad6 b1bd
00000130: b614 adbc db06 1abe b518 07be 6abd 1c3e
00000140: 37fb b7bd 95db 803d 33ab 733d 47ef 503e
00000150: bf1d 97be 89f9 353d 3474 2e3e 1847 29be
00000160: c42e 1dbd e0e2 5dbc edbb 1abe 1d2a 5abb
00000170: 448e 3c3e 285c dbbc 63ae 8e3d 8f9e a439
00000180: 6156 dc3d 4ccc afbb 13fa fbbd 3dda f03b
00000190: f392 3ebd fb50 0f3e b179 f8bc 1139 173e
000001a0: b341 50bd 1e2c eabd 4d93 91bd d657 2d3e
000001b0: 490e 03be 786d e33c d6f3 86be 714f acbd
000001c0: 2728 9abd baba 083e af39 90be 37c3 043d
000001d0: bf59 cdbd bad5 13be 7135 083e 963b 16bd
000001e0: d405 cebd bc11 bc3d c77e 0e3d 2a10 7d3d
000001f0: 365d aebd 1402 793d d9cb b93d fee6 113e
00000200: febf 703c 6f02 91bb 02f5 1a3e f6eb 3b3d
00000210: cc6d dabd 379c 1dbd 461b 07bd a0b4 0abe
00000220: 8514 433c 39c1 203d 978f e13d abc0 093d
00000230: 3359 2bbc 1d60 9cbe 54b9 683e 6e53 203d
00000240: 999a 98bd 2621 69bd 1423 8abe 2363 0fbd
00000250: 53dd 3b3e 1757 463d 5542 e6bc 0b73 2c3e
00000260: eb9b 043e 60c0 413e 67b6 8bbd e4a2 143d
00000270: d0de ab3d de9b 0dbd 42cb b1bd bc77 a83e
00000280: 200b 27be 24eb f63d 0f38 36be c061 cfbb
00000290: 0365 f4bd 2429 cc3d 502d b6bd 8295 073d
000002a0: 61ad 9e3c ce0e 33bd fc4d 9cbd 6237 203e
000002b0: cae6 94bd 9d2c cfbb da50 38be 2c40 84bd
000002c0: b47b 86be e622 32bb ba8c 6ebe 8604 293d
000002d0: 2d58 363e 6c86 06bc c7e6 aebd d12f 30be
000002e0: 3acd 9a3c 828e 1cbd 1433 923e d8a5 863d
000002f0: 28b4 9c3d 87db c33d c6dc 64bd 076d 8a3d
00000300: e7a7 45be e9a0 303e a346 353d 1c79 8e3e
00000310: e9bd 063d 1f68 49bd dd1a ffbb 4f04 e83c
00000320: a9d3 2e3b 60b7 c0bc a992 0cbe 51ae 353e
00000330: 1b5d d23d d6ae 783d 553f 2e3d 7a9f 28be
00000340: 9fc0 92bd a4a5 c4be 11a9 453e b1e3 b0bc
00000350: c5ac 4b3e 72ca c3bc 6fae 543c 370c 60be
00000360: 2afe 99bd ceb3 fcbd 5fc2 0b3c 37ee 9abe
00000370: 8047 c4bd 6148 edbd 9722 8fbd 32fb 843d
00000380: 3cd7 9c3d 9b3e 2fbe ebf5 26be 966a 46be
00000390: 3f55 5dbd 2507 573e 71e0 323d b29d 9cbc
000003a0: 747b 72be e04b 9bbe 432b 1dbe 9bb6 e836
000003b0: f5f7 3d3c 4a2e 38be 223c 3ebe 767d 07be
000003c0: e1d8 423e a709 cb3e f53d 073e 52c4 6c3d
000003d0: ba37 383e b253 64be 2ebf 8abd 08d4 22bd
000003e0: 3b02 ff3c 99ab c43d ea0c 55bd 362a e2bd
000003f0: 964d a03d 952c 80bd 65da adbd c4d7 fd3d
0.23821221 -0.0061506294 0.04051884 0.026731998 0.18476787 -0.16475825 -0.09008996 0.080796614
0.0631043 -0.02725508 0.12834035 0.078693695 0.011389871 0.039347287 -0.1881076 -0.05766298
-0.043135446 0.01466039 -0.10869744 0.003284742 0.18157029 0.17287996 -0.07697055 0.26769766
0.15542027 0.1334446 0.41231674 0.1518085 0.09224465 0.031450853 0.112909995 -0.079521015
-0.15701285 0.08226635 0.027037676 0.24738772 -0.046625968 0.19107333 -0.063177675 -0.15569805
0.04768693 -0.1521591 -0.07294941 -0.0017752053 -0.035130262 0.16560349 -0.060161546 0.13072908
0.14439945 0.041830327 0.026989056 0.1950566 -0.088058114 -0.1973225 0.11480085 -0.22173706
0.0071942154 0.033878766 0.06692302 0.0039155036 0.12198562 0.069001585 -0.015928544 0.07752529
-0.09844727 0.051485837 0.017303152 -0.10938365 0.093657166 -0.069393165 0.107129075 0.05221354
-0.0924319 -0.045946635 -0.0053033894 -0.08683558 -0.02112804 -0.15041678 -0.13193019 0.1530663
-0.08983462 0.06291882 0.05948944 0.20403777 -0.29514882 0.04442743 0.17036515 -0.16531026
-0.038374677 -0.013542861 -0.1511075 -0.0033289262 0.18413645 -0.026777342 0.069668554 0.00031398653
0.10758663 -0.0053649303 -0.12303557 0.007350235 -0.04652686 0.13995735 -0.030331464 0.14767863
-0.050843906 -0.11434196 -0.071081735 0.16928038 -0.12798418 0.02776216 -0.26357907 -0.0841359
-0.0752719 0.1335248 -0.2816901 0.032412734 -0.10026883 -0.14436999 0.13301636 -0.03667792
-0.100597054 0.0918307 0.034788873 0.061782993 -0.08513872 0.060792997 0.09072084 0.14248273
0.014694212 -0.004425339 0.15132526 0.045879327 -0.10665473 -0.038479056 -0.032984994 -0.13545465
0.011906748 0.03924677 0.11013716 0.033631008 -0.0104582785 -0.3054208 0.22726947 0.039142065
-0.07451362 -0.05691638 -0.26979887 -0.035006654 0.18346147 0.0484229 -0.028107801 0.1684076
0.12950103 0.18921041 -0.068219 0.036288157 0.083921075 -0.034572475 -0.086813465 0.3290385
-0.16312838 0.12056568 -0.17794822 -0.0063287914 -0.11933329 0.099687845 -0.088953614 0.033101566
0.019369783 -0.04371529 -0.07632062 0.15646127 -0.07270582 -0.006322457 -0.17999592 -0.06457552
-0.26266253 -0.0027181446 -0.2329587 0.04126408 0.17807074 -0.00821076 -0.08540111 -0.1720574
0.018896688 -0.038221844 0.28554595 0.06574601 0.076515496 0.09563356 -0.05587461 0.067590766
-0.19302331 0.17248882 0.044256818 0.27826774 0.032895956 -0.049171563 -0.007785185 0.028322367
0.0026676452 -0.02352494 -0.13727821 0.17742278 0.10271665 0.06071361 0.042540867 -0.16467085
-0.07165646 -0.38407624 0.19302775 -0.021592947 0.19890125 -0.023900244 0.012981041 -0.2187966
-0.07519181 -0.123389825 0.008530228 -0.30259869 -0.0958395 -0.11586071 -0.06989019 0.06493224
0.0765824 -0.17113726 -0.16304748 -0.19376597 -0.054036375 0.20998819 0.043671075 -0.019118164
-0.23679906 -0.30331326 -0.15348534 6.935397e-06 0.011594762 -0.17986408 -0.18577626 -0.13231453
0.19028045 0.39655802 0.13207228 0.057804413 0.17990008 -0.22297552 -0.06774746 -0.03975299
0.031128993 0.09603042 -0.05201427 -0.11043207 0.07827298 -0.06258503 -0.08488921 0.1239467

Linear2.bias f4 [60]
00000000: 100d c6bc f490 62bd 0285 b53e b254 273e
00000010: 75df 353e 9635 083e 0c4c 1c3d 6c70 623d
00000020: cf28 c33d d8d3 823d 8627 b8bc 451c 953c
00000030: 7bc7 023e 8a2e 1f3e dd39 853e b447 be3d
00000040: c52c e9bd 6d59 08be 0764 ba3c 19d7 543d
00000050: 57ca 1bbe 6eae 933d 3cbb adbd b556 9d3d
00000060: e0ca b2bd 88ae 1b3e 2577 2d3d 6e57 5a3c
00000070: 2c91 5f3d a4e1 b33d 6123 923b 7646 833d
00000080: 0f4a 773d 4827 0e3e af74 b53d eeff bd3d
00000090: 3373 6c3c 88e9 38bc 5d65 e93b 01b2 3b3e
000000a0: 5768 a43e f608 02be 8a64 90bd 9a2e 0dbe
000000b0: d004 263e 9c3f 633e 6468 7b3d a643 9b3d
000000c0: 2bb7 5cbd 2eeb 9dbd 1727 a53d fb5f 9e3d
000000d0: 3b4f f4ba 8970 92bd 1c17 d83c fbf6 e0bc
000000e0: 8ad6 153d 534f 823c d008 c9bd d453 4bbc
-0.02417615 -0.05531402 0.3545304 0.16340902 0.17761023 0.13301691 0.03815846 0.055282995
0.09529268 0.06388062 -0.022479784 0.018201957 0.12771408 0.15545097 0.2602071 0.0929102
-0.11385492 -0.13315363 0.022752775 0.051962946 -0.15213905 0.07211004 -0.08482978 0.07682554
-0.087301016 0.15203297 0.042349953 0.013326509 0.054581806 0.08783272 0.004459784 0.06409924
0.060373362 0.13882172 0.08860146 0.0927733 0.0144317625 -0.011286147 0.007122679 0.18329622
0.32110855 -0.12698731 -0.07050426 -0.13787308 0.16212773 0.22192234 0.06137885 0.07581262
-0.05388562 -0.077108726 0.080640964 0.077331506 -0.0018639335 -0.07150371 0.026378207 -0.02746152
0.036581554 0.015906965 -0.09816134 -0.012410123

Linear3.weight f4 [10, 60]
00000000: 0ea1 9abe ab99 87bc d64b 53bd 5488 da3e
00000010: 896c 78be 5289 8bbd 0b69 4c3e 7d10 433e
00000020: a834 b13e f545 873e 01dc 2bbe 55aa 273e
00000030: ac5b 1c3e e3db 80be 497e 0bbe 4578 e2bd
00000040: 5b59 c43d 4b55 f33b 594f 3c3e 6f81 2cbe
00000050: ad75 8dbd b651 30be 0035 3fbe 4f04 3abd
00000060: 1c7a 983e 3d9a 87bd 62c2 2ebe 279a 3b3e
00000070: cfe3 b83c 095a 96bd ba01 01be 4512 84be
00000080: 45b5 0dbd 2c60 5f3e 7693 50bd 7eee 8c3e
00000090: 9101 23bd a5ce 45be b2b1 903e d506 0c3f
000000a0: dade 01be c114 75be 0652 a8bd 02d5 f73d
000000b0: 0689 3ebd 7e5d ddbd d6b4 89bd 5560 79be
000000c0: cb2c 083e fe69 80be c66c 123e a786 893c
000000d0: efc9 b2bd f311 e0bd 7369 00bf 93cd afbd
000000e0: 5d77 44bd acb6 e13d fea2 533c 8b08 863e
000000f0: c004 f03c 18e2 d3bd 4108 cabd 9ac5 9a3a
00000100: be24 d0bd f5e4 de3d 053e bcbd 7ffa e2be
00000110: 6cd9 0bbe 05fc ad3d 7d4a 233c 42b7 a13d
00000120: b14f 0ebe 1df0 013e 7ab1 6ebd a422 a6be
00000130: c96b 333e 648c fc3e 1d33 5bbe 808f 75ba
00000140: 20da 0c3f b22e bdbe d4e7 25be 04ef 2bbe
00000150: 0be2 8f3e 8759 ca3d 819c ddbd 137e 793e
00000160: e8f0 bc3e 1b95 543e a345 a6bd 4cdd c63e
00000170: ba97 ce3d bd75 25be 6731 09bd 66e2 9e3d
00000180: 595a 003e 9f45 133e 036c d03c cbe9 bcbe
00000190: a9c7 81be 7536 d9bd fd5b ae3e 6e14 84be
000001a0: 998e 9fbe c3b8 b13d 9097 5e3e 2bb8 cfbc
000001b0: d6c2 813e fa52 8bbe 612b 38be 2a07 4dbe
000001c0: ca23 353c 6b00 b23c 1367 4c3d 75ab 203d
000001d0: 4de5 873d 6ad3 543b f58b 233e 4157 713d
000001e0: 2e64 b33e 2da4 3abe 0ec3 6f3d bf64 cebd
000001f0: b1be 083e 03c1 f7bd 3662 a03e be8f a83d
00000200: f19a 15be 9dd2 893d be30 d93c 9bb0 fa3d
00000210: 456e 44be 5da7 263e e9d4 91bc b037 11be
00000220: 3b41 343c 5c18 7cbe cea5 6ebe 728a 07be
00000230: f4cf e03d 3b6b 9c3e 2dc8 143e 651c 07bd
00000240: daf2 273e cc8c bf3c b229 a03b 917e 48be
00000250: d1ce 8cbe 5dda b4be a33c f93c c139 e0be
00000260: 98d1 91be af33 69bd aefd 893c e404 3abe
00000270: a9c6 8a3e 7ad1 ac3e fb60 e43e d6a8 a43e
00000280: 6509 9c3e 6ab0 7c3e b39f 303e e1e4 5fbc
00000290: 6aab 853e c334 563e 57f3 16be 14db 173b
000002a0: 57f9 19be 2298 a03e b4bc fa3d 522f aebd
000002b0: f8f0 9a3b 71fc e1bb 8055 9e3e f5e5 febd
000002c0: 050b c43d 4ffb a03e 1799 0d3e 0c06 05be
000002d0: 0a06 d23b 661c e6bb 3e1f 01be 3cde c0bd
000002e0: fd62 8d3d 52a0 63bd 977a a53e 68a8 063e
000002f0: 340b 4ebe 33a3 9fbd 787a 2f3e be28 db3d
00000300: 0f8d 173e 9968 4f3d b21f 683e 2be3 133e
00000310: e828 f7bd caf1 d33d 0f20 3dbe 3472 bcbd
00000320: 3654 debd 05f6 aebd a309 5d3e 5350 be3e
00000330: 9c99 3ebe dab3 243e c056 393e e9e9 3b3e
00000340: ad85 d8bd d95b 82bd 7b65 80bd 4ac1 cc3e
00000350: 457d 823e 7e2c e63e 7d49 263a 0680 5bbd
00000360: 6627 14be 3ec2 5cbc 6b3f 4bbe 04b4 a2bc
00000370: f7f7 8e3e 1fb1 593d d252 92bd aea3 083e
00000380: 787f 0fbd 6c6b c23d f21f 3fbe 699e 7e3b
00000390: a7ea 863e 9bf9 8abd d101 f8bd 7074 56be
000003a0: c68d bdbd 5574 b1bd d057 963d aae3 5dbc
000003b0: 0566 e93d 9729 0bbe 23dd 9b3c ea2a 28be
000003c0: a86e c2bd c392 1dbe 1b32 f93e d3fb be3e
000003d0: c0f1 f6be 31e5 9bbd e842 c03e a222 3fbd
000003e0: d448 bb3d 5b7d a83d 7d54 603d de34 163e
000003f0: 33aa 90bd 8dd1 e23e b865 b93e 1085 7c3d
-0.30201 -0.016552767 -0.051585995 0.42682135 -0.24260153 -0.06813301 0.19961946 0.19049259
0.34610486 0.2642056 -0.16783144 0.1637357 0.15269345 -0.2516776 -0.13622393 -0.11058096
0.09587356 0.007425939 0.18389644 -0.1684625 -0.069072105 -0.1721867 -0.18672562 -0.045414265
0.29780662 -0.066212155 -0.17066339 0.18320523 0.022569565 -0.073413916 -0.12598315 -0.2579519
-0.0345967 0.2181403 -0.05092188 0.27525705 -0.039796416 -0.1931711 0.2826057 0.54697925
-0.12682667 -0.23933698 -0.0821877 0.12101175 -0.046517394 -0.10808848 -0.06723945 -0.24353154
0.13298337 -0.25080866 0.14299306 0.01678784 -0.08729922 -0.109409235 -0.501609 -0.08584132
-0.047965396 0.1102117 0.012917278 0.26178393 0.02929914 -0.10345858 -0.098648556 0.0011808157
-0.10163258 0.10883514 -0.09191517 -0.44331738 -0.13657159 0.084953345 0.00996649 0.07896282
-0.13897587 0.12689252 -0.058274724 -0.32448304 0.17521586 0.4932586 -0.21406217 -0.00093673915
0.5502033 -0.36949688 -0.16201717 -0.16790396 0.28102145 0.09880357 -0.108208664 0.243645
0.36902547 0.20760004 -0.08118751 0.3884071 0.10087533 -0.16158195 -0.03349438 0.07758026
0.12534465 0.14382027 0.025442129 -0.3689712 -0.2534764 -0.1060609 0.34054556 -0.25796837
-0.3116348 0.086778186 0.21737504 -0.025356373 0.2534396 -0.27211744 -0.17985298 -0.20022264
0.011055896 0.021728715 0.049902987 0.039226014 0.066355325 0.0032474645 0.15971358 0.058921102
0.3503737 -0.1822669 0.058535628 -0.100778095 0.13353993 -0.12097361 0.3132493 0.08230542
-0.14609887 0.067296244 0.0265125 0.12240716 -0.1918269 0.16274782 -0.017801719 -0.141814
0.01100188 -0.24618667 -0.23305437 -0.13236406 0.10977164 0.3055056 0.14529486 -0.032986064
0.16401234 0.023382567 0.004887783 -0.19579531 -0.27501538 -0.35322848 0.030424422 -0.43794063
-0.2848022 -0.056934055 0.016844597 -0.18165928 0.2710469 0.33753568 0.4460524 0.32160062
0.30475917 0.24676672 0.1724842 -0.013665409 0.2610734 0.20918564 -0.14741264 0.0023171352
-0.15036522 0.31366068 0.122430235 -0.085051194 0.0047284327 -0.0068965484 0.30924606 -0.124462046
0.09572414 0.31441733 0.1382793 -0.12990588 0.0064094113 -0.0070224283 -0.12609574 -0.09417388
0.06903646 -0.055572815 0.3232009 0.1315018 -0.20121461 -0.077948 0.17136562 0.1070113
0.14799903 0.05063686 0.22668341 0.14442126 -0.12068349 0.10348852 -0.1846926 -0.0920147
-0.10855906 -0.08543018 0.21585707 0.37170658 -0.18613285 0.16084233 0.18099499 0.18350948
-0.10572372 -0.06365175 -0.06269356 0.39991218 0.25486198 0.4495582 0.0006343348 -0.05358889
-0.14468154 -0.013474045 -0.19848411 -0.019861229 0.27923557 0.05314743 -0.07144703 0.13343689
-0.035033673 0.09493145 -0.1866453 0.0038851744 0.263509 -0.0678589 -0.121097215 -0.20942855
-0.09255557 -0.08664767 0.07340968 -0.013543049 0.11396412 -0.13590084 0.019026345 -0.1642262
-0.09493762 -0.15388016 0.4867104 0.37301502 -0.48231316 -0.07612074 0.37551045 -0.046663888
0.0914475 0.08227035 0.054768074 0.14668605 -0.07063713 0.443005 0.36210418 0.061650336

Linear3.bias f4 [10]
00000000: 0fee 21be e78b 0abe b235 9fbd 10af c73d
00000010: b7c8 0e3f cb46 0b3d 8131 afbd 8adf 4abe
00000020: d962 233e 8049 85be
-0.15813468 -0.13529931 -0.077739134 0.097501874 0.55775017 0.03400306 -0.08554364 -0.19811836
0.15955676 -0.2603264
